…
dd(Conv2D(64, (3, 3)))\rmodel.add(Activation(\u0026#39;relu\u0026#39;))\rmodel.add(MaxPooling2D(pool_size=(2, 2)))\rmodel.add(Dropout(0.25))\rmodel.add(Flatten())\rmodel.add(Dense(512))\rmodel.add(Activation(\u0026#39;relu\u0026#39;))\rmodel.add(Dropout(0.5))\rmodel.add(Dense(dense_size))\rmodel.add(Activation(\u0026#39;softmax\u0026#39;))\rmodel.summary()\r## Model: \u0026quot;sequential\u0026quot;\r## _________________________________________________________________\r## Layer (type) Output Shape Param # ## =================================================================\r## conv2d (Conv2D) (None, 300, 300, 32) 896 ## _________________________________________________________________\r## activation (Activation) (None, 300, 300, 32) 0 ## _________________________________________________________________\r## conv2d_1 (Conv2D) (None, 298, 298, 32) 9248 ## _________________________________________________________________\r## activation_1 (Activation) (None, 298, 298, 32) 0 ## _________________________________________________________________\r## max_pooling2d (MaxPooling2D) (None, 149, 149, 32) 0 ## _________________________________________________________________\r## dropout (Dropout) (None, 149, 149, 32) 0 ## _________________________________________________________________\r## conv2d_2 (Conv2D) (None, 149, 149, 64) 18496 ## _________________________________________________________________\r## activation_2 (Activation) (None, 149, 149, 64) 0 ## _________________________________________________________________\r## conv2d_3 (Conv2D) (None, 147, 147, 64) 36928 ## _________________________________________________________________\r## activation_3 (Activation) (None, 147, 147, 64) 0 ## _________________________________________________________________\r## max_pooling2d_1 (MaxPooling2 (None, 73, 73, 64) 0 ## _________________________________________________________________\r## dropout_1 (Dropout) (None, 73, 73, 64) 0 ## _________________________________________________________________\r## flatten (Flatten) (None, 341056) 0 ## _________________________________________________________________\r## dense (Dense) (None, 512) 174621184 ## _________________________________________________________________\r## activation_4 (Activation) (None, 512) 0 ## _________________________________________________________________\r## dropout_2 (Dropout) (None, 512) 0 ## _________________________________________________________________\r## dense_1 (Dense) (None, 2) 1026 ## _________________________________________________________________\r## activation_5 (Activation) (None, 2) 0 ## =================================================================\r## Total params: 174,687,778\r## Trainable params: 174,687,778\r## Non-trainable params: 0\r## _________________________________________________________________\rNow, let’s get to the learning part. We’ll use Adadelta for the algorithm. I don’t really understand it.\noptimizers =\u0026quot;Adadelta\u0026quot;\rresults = {}\repo
…
