…
model.add(MaxPooling2D(pool_size=(2, 2)))
model.add(Dropout(0.25))

model.add(Flatten())
model.add(Dense(512))
model.add(Activation(&amp;#39;relu&amp;#39;))
model.add(Dropout(0.5))
model.add(Dense(dense_size))
model.add(Activation(&amp;#39;softmax&amp;#39;))

model.summary()&lt;/code&gt;&lt;/pre&gt;
&lt;pre&gt;&lt;code&gt;## Model: &amp;quot;sequential&amp;quot;
## _________________________________________________________________
## Layer (type)                 Output Shape              Param #   
## =================================================================
## conv2d (Conv2D)              (None, 300, 300, 32)      896       
## _________________________________________________________________
## activation (Activation)      (None, 300, 300, 32)      0         
## _________________________________________________________________
## conv2d_1 (Conv2D)            (None, 298, 298, 32)      9248      
## _________________________________________________________________
## activation_1 (Activation)    (None, 298, 298, 32)      0         
## _________________________________________________________________
## max_pooling2d (MaxPooling2D) (None, 149, 149, 32)      0         
## _________________________________________________________________
## dropout (Dropout)            (None, 149, 149, 32)      0         
## _________________________________________________________________
## conv2d_2 (Conv2D)            (None, 149, 149, 64)      18496     
## _________________________________________________________________
## activation_2 (Activation)    (None, 149, 149, 64)      0         
## _________________________________________________________________
## conv2d_3 (Conv2D)            (None, 147, 147, 64)      36928     
## _________________________________________________________________
## activation_3 (Activation)    (None, 147, 147, 64)      0         
## _________________________________________________________________
## max_pooling2d_1 (MaxPooling2 (None, 73, 73, 64)        0         
## _________________________________________________________________
## dropout_1 (Dropout)          (None, 73, 73, 64)        0         
## _________________________________________________________________
## flatten (Flatten)            (None, 341056)            0         
## _________________________________________________________________
## dense (Dense)                (None, 512)               174621184 
## _________________________________________________________________
## activation_4 (Activation)    (None, 512)               0         
## _________________________________________________________________
## dropout_2 (Dropout)          (None, 512)               0         
## _________________________________________________________________
## dense_1 (Dense)              (None, 2)                 1026      
## _________________________________________________________________
## activation_5 (Activation)    (None, 2)                 0         
## =================================================================
## Total params: 174,687,778
## Trainable params: 174,687,778
## Non-trainable params: 0
## _________________________________________________________________&lt;/code&gt;&lt;/pre&gt;
&lt;p&gt;では、学習パートに入ります。アルゴリズムには&lt;code&gt;Adadelta&lt;/code&gt;を使用します。よくわかってないんですけどね。。。&lt;/p&gt;
&lt;pre class=&#34;python&#34;&gt;&lt;code&gt;optimizers =&amp;quot;Adadelta&amp;quot;
…
