…
model&lt;span style=&#34;color:#f92672&#34;&gt;.&lt;/span&gt;add(Dense(dense_size))
model&lt;span style=&#34;color:#f92672&#34;&gt;.&lt;/span&gt;add(Activation(&lt;span style=&#34;color:#e6db74&#34;&gt;&amp;#39;softmax&amp;#39;&lt;/span&gt;))

model&lt;span style=&#34;color:#f92672&#34;&gt;.&lt;/span&gt;summary()
&lt;/code&gt;&lt;/pre&gt;&lt;/div&gt;&lt;pre&gt;&lt;code&gt;## Model: &amp;quot;sequential_1&amp;quot;
## _________________________________________________________________
## Layer (type)                 Output Shape              Param #   
## =================================================================
## conv2d_1 (Conv2D)            (None, 300, 300, 32)      896       
## _________________________________________________________________
## activation_1 (Activation)    (None, 300, 300, 32)      0         
## _________________________________________________________________
## conv2d_2 (Conv2D)            (None, 298, 298, 32)      9248      
## _________________________________________________________________
## activation_2 (Activation)    (None, 298, 298, 32)      0         
## _________________________________________________________________
## max_pooling2d_1 (MaxPooling2 (None, 149, 149, 32)      0         
## _________________________________________________________________
## dropout_1 (Dropout)          (None, 149, 149, 32)      0         
## _________________________________________________________________
## conv2d_3 (Conv2D)            (None, 149, 149, 64)      18496     
## _________________________________________________________________
## activation_3 (Activation)    (None, 149, 149, 64)      0         
## _________________________________________________________________
## conv2d_4 (Conv2D)            (None, 147, 147, 64)      36928     
## _________________________________________________________________
## activation_4 (Activation)    (None, 147, 147, 64)      0         
## _________________________________________________________________
## max_pooling2d_2 (MaxPooling2 (None, 73, 73, 64)        0         
## _________________________________________________________________
## dropout_2 (Dropout)          (None, 73, 73, 64)        0         
## _________________________________________________________________
## flatten_1 (Flatten)          (None, 341056)            0         
## _________________________________________________________________
## dense_1 (Dense)              (None, 512)               174621184 
## _________________________________________________________________
## activation_5 (Activation)    (None, 512)               0         
## _________________________________________________________________
## dropout_3 (Dropout)          (None, 512)               0         
## _________________________________________________________________
## dense_2 (Dense)              (None, 2)                 1026      
## _________________________________________________________________
## activation_6 (Activation)    (None, 2)                 0         
## =================================================================
## Total params: 174,687,778
## Trainable params: 174,687,778
## Non-trainable params: 0
## _________________________________________________________________
&lt;/code&gt;&lt;/pre&gt;&lt;p&gt;ã§ã¯ã€å­¦ç¿’ãƒ‘ãƒ¼ãƒˆã«å…¥ã‚Šã¾ã™ã€‚ã‚¢ãƒ«ã‚´ãƒªã‚ºãƒ ã«ã¯&lt;code&gt;Adadelta&lt;/code&gt;ã‚’ä½¿ç”¨ã—ã¾ã™ã€‚ã‚ˆãã‚ã‹ã£ã¦ãªã„ã‚“ã§ã™ã‘ã©ã­ã€‚ã€‚ã€‚&lt;/p&gt;
…
