…
model.add(Conv2D(64, (3, 3))) model.add(Activation(\u0026#39;relu\u0026#39;)) model.add(MaxPooling2D(pool_size=(2, 2))) model.add(Dropout(0.25)) model.add(Flatten()) model.add(Dense(512)) model.add(Activation(\u0026#39;relu\u0026#39;)) model.add(Dropout(0.5)) model.add(Dense(dense_size)) model.add(Activation(\u0026#39;softmax\u0026#39;)) model.summary() ## Model: \u0026quot;sequential_1\u0026quot;\r## _________________________________________________________________\r## Layer (type) Output Shape Param # ## =================================================================\r## conv2d_1 (Conv2D) (None, 300, 300, 32) 896 ## _________________________________________________________________\r## activation_1 (Activation) (None, 300, 300, 32) 0 ## _________________________________________________________________\r## conv2d_2 (Conv2D) (None, 298, 298, 32) 9248 ## _________________________________________________________________\r## activation_2 (Activation) (None, 298, 298, 32) 0 ## _________________________________________________________________\r## max_pooling2d_1 (MaxPooling2 (None, 149, 149, 32) 0 ## _________________________________________________________________\r## dropout_1 (Dropout) (None, 149, 149, 32) 0 ## _________________________________________________________________\r## conv2d_3 (Conv2D) (None, 149, 149, 64) 18496 ## _________________________________________________________________\r## activation_3 (Activation) (None, 149, 149, 64) 0 ## _________________________________________________________________\r## conv2d_4 (Conv2D) (None, 147, 147, 64) 36928 ## _________________________________________________________________\r## activation_4 (Activation) (None, 147, 147, 64) 0 ## _________________________________________________________________\r## max_pooling2d_2 (MaxPooling2 (None, 73, 73, 64) 0 ## _________________________________________________________________\r## dropout_2 (Dropout) (None, 73, 73, 64) 0 ## _________________________________________________________________\r## flatten_1 (Flatten) (None, 341056) 0 ## _________________________________________________________________\r## dense_1 (Dense) (None, 512) 174621184 ## _________________________________________________________________\r## activation_5 (Activation) (None, 512) 0 ## _________________________________________________________________\r## dropout_3 (Dropout) (None, 512) 0 ## _________________________________________________________________\r## dense_2 (Dense) (None, 2) 1026 ## _________________________________________________________________\r## activation_6 (Activation) (None, 2) 0 ## =================================================================\r## Total params: 174,687,778\r## Trainable params: 174,687,778\r## Non-trainable params: 0\r## _________________________________________________________________\rでは、学習パートに入ります。アルゴリズムにはAdadeltaを使用します。よくわかってないんですけどね。。。\noptimizers =\u0026#34;Adadelta\u0026#34; results = {} epochs = 50 model.compile(loss=\u0026#39;categorical_cros
…
